extract_uncensored_refusal/refusal_direction/probe.pt (torch, 17868 bytes, 1 tensors)

linear.weight f4 [1, 4096]
00000000: ec1c 993a 9e32 da3c 83a0 f83c 64cd b93b
00000010: 45bd cfbb c012 863c fcd0 033d 21fe 08b7
00000020: 91f1 f83b 47a4 b3bc 745d 813d 0d00 a93d
00000030: b33a f73c 7195 493d 9303 4b3d 16fa de3b
00000040: 12f5 ac3b 62fc 9b3a c827 2b3d 54e7 0a3c
00000050: 169c 52bd 8ba8 b53b 0d31 b03c 6803 ca3b
00000060: fade 48bd c8bd 4d3d 5a18 50bd b83e 28b9
00000070: 2cc5 25bc 7082 e43b 95d7 103d 333f 69bd
00000080: 793e 8d3c 90be e23d 79e6 27bd 7b2f b2bc
00000090: fee2 78bc 9db2 293c 0eb6 793d 32b1 8b3d
000000a0: 216b 2fbc 82d2 a13d 3464 74bd 83c8 bbbc
000000b0: 4c2d 17bd 69ee 87bc 8ee7 553c ae4a 08bd
000000c0: fcd3 cebd b96a 363d 71b8 bebd 5d41 8e3b
000000d0: e99a c5ba e246 b9bb 34b7 603d 0006 a73d
000000e0: 4fc1 b9bd 130c 3f3d 8f91 d63c a4cb d0bc
000000f0: 5371 8abc 0290 8dbc 2a50 233d aa3d 42bd
00000100: 5a63 dd3c c626 6c3d d760 cebd a2de a9bd
00000110: 0f9b 83bc 4d99 1f3c 1fa1 29bd d019 9c3d
00000120: 8a41 4a3d 9a9a 873c 98a2 f7bd fc10 55bc
00000130: 9e11 423d b1fe cc3c 2df6 8abc 56f8 1f3b
00000140: d908 0fbc f33d df3c cf13 80bd 6894 643d
00000150: c613 58bc ebc9 81bb 4b07 91bb 846f 82bc
00000160: caa4 b8bb 0697 86b9 d1c3 1b3d b2a5 c8bc
00000170: f8d9 98bd 7f8c 23bc 2fd2 823d 8409 edbd
00000180: e547 a7bd 9633 edbc 04ec d73b e705 1abc
00000190: 2445 f13c 6294 c43d e042 123d 5882 b13d
000001a0: adc6 a6bc 8e12 df3d e35c 0a3c b506 163d
000001b0: bbad e73c 4343 19be cce1 993c f5c0 95bb
000001c0: f540 f33d 7b60 c7bb 5048 53bd 2806 91bd
000001d0: 1f3a de3c 089a 723d 3fc6 e8bc 1da3 57bd
000001e0: 60f3 7e3d fcd3 f6bc d36e c33c d49b ae3b
000001f0: 89d9 673d f14f c43d 1366 dabc 2438 a1bc
00000200: 5570 2a3c 2f5f 1f3d 080d 0f3d 8e3a 6cbb
00000210: 4037 743d ec00 ef3b e182 d13d dc34 84bc
00000220: 0529 a3bc a589 41bc a82a ecbc 4c83 27bd
00000230: 4751 f53d 71d1 18bd 41ba 70bc 05ec 133c
00000240: b3a5 80bb 27d2 63bd 9e32 873d 0c99 9f3d
00000250: 0346 48bd cf6a 523d febc fd3a b3d5 393d
00000260: 928e a6bd 1121 533d 9601 a4bd 2a2c 863c
00000270: e3d2 26bd 7a18 73bd 19f7 bbbd dacb 0dbb
00000280: 0203 0ebe 5c31 b63c fb71 1c3d 0508 4e3d
00000290: eebc 56bd 6325 31bc e482 0abd 763e 243d
000002a0: 54f5 073d ca28 66bd 67a1 efbb 858c e43c
000002b0: f809 a93b 3254 f1bc 64ad 203e 5f39 72bc
000002c0: 5e87 51bd 911c 02bb 733b 60bd a0fe df3c
000002d0: 1b6f 9c3b f4a5 4dbc 34a5 dc3b 6c55 923c
000002e0: 8e37 043b d318 d1bb 70d2 973d 2d3d 91bc
000002f0: 9819 12bc 4789 9ebc b410 af3d 52c1 823d
00000300: 5702 bcbd feb1 8cbd 1456 c73b 3407 673c
00000310: f946 023c 4044 ea3b 2af2 843b 34ec 88bc
00000320: e627 353d 0ec6 f13d b7f3 1fbb c47e 95bd
00000330: b3da acbc d4b0 6c3d 020e 72bd d919 55bc
00000340: dbae 863d 1654 ba3d 6707 013e 6f61 f03d
00000350: e173 7bbd 389e 05bc d168 1c3d 18df a6bc
00000360: d71a 9b3c 823e 043d 8b41 27bd 440a 08bb
00000370: 450a 70bc db83 4c3a 354e adbc 8f7d 5a3a
00000380: 5d0b c23c a811 813c 3d8f 94bc 785e 013e
00000390: f78c 43bc 1531 2abd 3e76 8abd b35f e9bc
000003a0: 6d30 d1bb 58f2 dc3c 9232 64bc acf8 21be
000003b0: d4f1 08b8 596f 83bc 6a3d fdbc 1ec8 c9bd
000003c0: eb8f ae3d dd8b ac3c 1a0e f93c 1f7c a0bc
000003d0: a7d5 953d eedb 7abc 19be 09bd 1473 88bd
000003e0: 2d59 90bd 5f0a e23c 654f 213d ed5e ed3d
000003f0: 734b b83c 9c81 343b 9a10 eab9 b1ab 89bd
0.0011681593 0.026635464 0.030349975 0.0056702364 -0.0063397014 0.016366363 0.032181725 -8.165401e-06
0.0075971563 -0.02192892 0.06316653 0.08251963 0.030179357 0.049214784 0.049563956 0.006804715
0.005278238 0.0011900777 0.041785985 0.0084780045 -0.051418386 0.0055437735 0.021507764 0.006164957
-0.049040772 0.050229818 -0.050804473 -0.00016045093 -0.01011781 0.006973557 0.035361845 -0.056945037
0.017241703 0.11071503 -0.04099128 -0.021751156 -0.015190838 0.010357526 0.060964637 0.06820907
-0.010706694 0.07901479 -0.059665874 -0.02292276 -0.036908433 -0.016593175 0.013055695 -0.033274345
-0.100990266 0.044535372 -0.09312523 0.004341288 -0.0015076074 -0.005654202 0.054862216 0.08155441
-0.09070074 0.046642374 0.026192455 -0.025487728 -0.01689974 -0.017280582 0.039871372 -0.04742209
0.027024914 0.057654165 -0.100770645 -0.08294417 -0.016065149 0.00974114 -0.041413423 0.07622111
0.04937891 0.016553212 -0.12091559 -0.013004538 0.047380082 0.02502379 -0.016963089 0.0024409494
-0.008730137 0.02725122 -0.06253778 0.055805594 -0.013188308 -0.003960838 -0.004425918 -0.015922315
-0.0056348788 -0.00025670993 0.038028542 -0.024493072 -0.07463449 -0.009982227 0.063877456 -0.115740806
-0.0816801 -0.028955262 0.0065894146 -0.009400821 0.029451914 0.09598614 0.03570831 0.08667439
-0.020358408 0.10892211 0.0084449975 0.03662749 0.028281083 -0.14967065 0.018784426 -0.0045701214
0.11877624 -0.0060844994 -0.051582634 -0.07081252 0.027127324 0.059228927 -0.028414844 -0.05264579
0.06224382 -0.030130379 0.023856556 0.0053286348 0.056603942 0.0958556 -0.02666 -0.01968009
0.010402759 0.038909134 0.034924537 -0.0036045644 0.059623003 0.007293811 0.10230041 -0.016138487
-0.01991702 -0.011812602 -0.028828934 -0.0408967 0.11978393 -0.037309114 -0.014692844 0.009028439
-0.003926003 -0.05562034 0.06601451 0.07792863 -0.048894893 0.05137139 0.0019358692 0.045369815
-0.08132662 0.051545206 -0.08008115 0.016378481 -0.04072846 -0.059349515 -0.091779895 -0.0021636398
-0.13868335 0.022240333 0.038194638 0.050300617 -0.05242627 -0.010812136 -0.033816233 0.04009863
0.033192948 -0.056191243 -0.007312942 0.027899036 0.005158659 -0.029459093 0.15691143 -0.014784186
-0.051154487 -0.0019853453 -0.054744195 0.027343094 0.004773987 -0.012551773 0.006733561 0.017862998
0.0020174715 -0.006381133 0.07413185 -0.017729366 -0.008917235 -0.019352568 0.08548108 0.06384529
-0.09180134 -0.06869887 0.0060832594 0.014100838 0.0079514915 0.0071492493 0.0040571885 -0.016714193
0.044227503 0.11805354 -0.002440674 -0.07299569 -0.021100378 0.057785824 -0.05909539 -0.013006651
0.0657632 0.09098069 0.1260048 0.11737334 -0.061389808 -0.008155398 0.0381859 -0.020370051
0.018933697 0.032286175 -0.04083399 -0.0020758072 -0.014650886 0.00078016304 -0.021155456 0.000833475
0.023687059 0.01575549 -0.018134708 0.12633693 -0.011935464 -0.041550715 -0.06760834 -0.028488016
-0.0063839466 0.026971027 -0.0139280725 -0.15817517 -3.2650147e-05 -0.016044306 -0.030913074 -0.098526224
0.08523544 0.021062786 0.030402232 -0.019590436 0.073161416 -0.015311224 -0.033628557 -0.066625744
-0.07048259 0.027592836 0.039382357 0.11590371 0.022496914 0.0027543074 -0.00044644327 -0.06722201
